…
ely due to insufficient temporal information ag-\ngregation. Moreover, we gradually increase the temporal\nkernel size from 3 to 7, 13, and 21, observing a consistent\ndownward trend in performance. This indicates that aggre-\ngating a longer-range temporal context does not necessarily\nbenefit the backbone. Overall, our default TIA configura-\ntion demonstrates the best performance.\nTable 13. Ablation of different kernel size in depth-wise con-\nvlution in AdaTAD. The order of the kernel size follows t, h, w.\nVideoMAE-B is used as the backbone on THUMOS dataset.\nDW Kernel 0.3 0.5 0.7 mAP\n(3,1,1) 87.04 75.33 49.22 71.56\n(1,1,1) 85.97 74.61 49.12 71.06\n(3,3,3) 85.46 73.74 49.13 70.63\n(7,1,1) 86.17 74.62 48.93 71.02\n(13,1,1) 85.68 72.80 47.98 69.96\n(21,1,1) 84.75 72.53 46.74 69.03\nD.4. Ablation of Adapter Design on ActivityNet-1.3\nIn the main paper, we present a comparison of various\nadapter architectural designs on THUMOS14. Extend-\ning our analysis, we conduct a similar ablation study on\nActivityNet-1.3, with results detailed in Table 14. The find-\nings from this study align with the conclusions drawn in the\nmain paper. Notably, since the size
…
nsential spatiotemporal features. Notably, omitting the Stem\nmodule (Bs = 0) results in a significant performance drop,\nhighlighting its importance in sequence interpretation.\nKernel sizes and Aggregation methods We evaluated the\nperformance impact of differentkernel sizecombinations for\nTFA-Bi-S6 and CFA-Bi-S6 blocks and variousaggregation\nmethods using the Dual structure. This analysis, detailed in\nTable 2b, explores how different configurations influence the\nmodel’s ability to capture temporal and channel-wise local\ncontext.\n7\nStructure (Be,Bs,Bb) Params Avg mAP\n(M) (%)\nSingle (1,0,1) 16.0 69.4\n(1,1,1) 18.8 72.2\n(2,1,1) 19.6 72.0\n(1,2,1) 21.6 71.7\n(1,1,2) 33.0 71.0\n(2,2,1) 22.5 71.8\n(2,1,2) 33.8 71.1\n(1,2,2) 35.9 71.3\n(2,2,2) 36.6 71.5\n(1,4,1) 27.3 71.3\n(1,8,1) 38.6 70.7\nDual (1,1,1) 21.7 72.8\n(1,2,1) 28.5 72.5\n(a)\nKTFA KCFA Aggregate Params Avg mAP\n(M) (%)\nX X Sum 20.5 72.1\n(4) X Sum 21.6 72.6\nX (4) Sum 20.6 72.3\n(4) (4) Sum 21.7 72.8\n(2,4) (4) Sum 22.1 73.0\n(4) (2,4) Sum 21.7 72.9\n(2,4) (2,4) Sum 22.2 73.1\n(2,3,4) (2,3,4) Sum 23.0 73.4\n(2,3,4,8) (2,3,4,8) Sum 25.2 73.2\n(2,4,8) (2,3,4) Sum 24.3 73.4\n(2,3,4) (2,4,8) Sum 23.1 73.5\n(2,3,4) (2,4,8) Concat 31.6 72.8\n(2,4,8) (2,4,8) Su
…
